results/ddpg_actor_checkpoint.pt (torch_old, 159230 bytes, 6 tensors)

fc1.weight f4 [256, 24]
0.4046493 0.25624758 -0.025943115 -0.14265007 -0.19512127 0.3014834 -0.02139866 -0.06564041
0.3562676 0.2696228 -0.05428711 -0.121932074 -0.25387442 0.3375899 0.0077678845 -0.068734564
0.058768384 0.061958645 -0.02281719 -0.005840113 -0.5034691 0.66539776 0.042586952 -0.05100872
0.12047786 0.14345327 0.11789155 -0.31923878 0.07914577 0.13374598 0.1264087 -0.41199505
0.077499285 -0.10498653 -0.032756694 -0.30526614 0.043573394 0.2467783 -0.080176696 -0.2952048
0.1524619 -0.14841951 -0.001203002 -0.23892888 0.09619338 0.29473338 0.044011127 -0.27724585
-0.28485906 0.54901356 0.048820246 -0.13425112 -0.108330294 -0.13545583 -0.033944126 -0.18820897
-0.116479956 0.4530206 -0.05020412 -0.5135417 0.099523544 -0.28378528 -0.031020064 -0.4937062
-0.047022548 0.36278674 -0.03783517 -0.572611 0.23617202 -0.48992616 0.008544915 -0.49748796
0.16328545 0.2608199 -0.030059047 0.16292548 0.94744426 -0.2546783 -0.0062394794 0.15596455
0.050365023 0.25256267 -0.011402831 0.18283683 0.65035796 -0.17917521 0.027045388 0.25468293
0.044955608 0.2935761 -0.055315327 0.19037706 0.33513117 -0.02904719 0.041166596 0.21993455
0.17141151 0.10443975 0.17651932 -0.082744285 -0.15354653 -0.51792866 0.07077531 -0.15497932
0.23428065 0.17272295 0.050389808 0.06610427 -0.08013334 -0.6702484 0.07237314 0.13341501
0.30141553 0.2801522 0.013859476 0.27676764 -0.13757478 -0.8416574 0.052502815 0.34502077
0.3109385 -0.046847776 -0.024034463 0.13981916 0.12267893 -0.038722254 0.054178838 0.15804808
0.2609046 0.040062785 0.011184538 0.259909 0.0697293 -0.015614209 0.0787785 0.28588524
0.35714054 0.0639862 0.021499908 0.22930942 0.14901535 0.024294095 0.029741572 0.20311286
0.27683854 0.5245483 -0.004472321 -0.3085434 -0.23504269 -0.57208717 0.022975095 -0.2190041
0.3652262 0.51720804 0.16513187 0.087794535 -0.28536224 -0.81243026 0.14388846 0.09603088
0.30030277 0.6516041 0.09820786 0.37390217 -0.24806453 -1.1872386 0.096154526 0.4046676
-0.2297523 0.11727397 -0.06817688 0.079863235 -0.09791302 -0.44460037 -0.040265802 0.034050506
-0.14620192 0.19371454 -0.044129867 -0.048414115 -0.016864818 -0.6097024 -0.030717919 -0.040907074
-0.07594798 0.13530937 -0.09032972 -0.14871739 0.08073403 -0.8991897 -0.013782624 -0.16820593
0.14794709 0.15401724 -0.1391275 -0.23007558 -0.16051936 -0.16470495 -0.13667345 -0.25543976
0.21471734 0.09066749 -0.02586341 -0.47317588 -0.10022139 -0.15509753 -0.0056494777 -0.44843358
0.17074886 -0.13030387 0.06609797 -0.4411832 -0.18284959 -0.034082398 -0.011583641 -0.5074567
0.25347736 0.5794066 0.014362146 -0.049796812 -0.12450903 0.4836849 0.0061872364 -0.03220653
0.18730636 0.5520374 0.011711557 0.012353047 -0.23181702 0.6223481 -0.033557102 -0.057944458
0.25811306 0.49478477 -0.06820285 -0.015159341 -0.3406728 0.72116417 0.028750556 -0.041280866
0.27357456 -0.14812055 0.009455881 -0.5092443 0.05768274 -0.18357699 -0.03292237 -0.45347485
0.28954896 -0.36011437 -0.0529282 -0.29318047 0.13272384 -0.099467054 -0.094292656 -0.27169663
00000000: 312e cf3e e232 833e a886 d4bc dc12 12be
00000010: dfcd 47be 085c 9a3e 3e4c afbc 7b6e 86bd
00000020: b568 b63e 000c 8a3e 295c 5ebd 86b7 f9bd
00000030: d4fb 81be 95d8 ac3e bd89 fe3b b5c4 8cbd
00000040: 1eb7 703d 59c8 7d3d 1eeb babc 6b5e bfbb
00000050: 5ae3 00bf 8257 2a3f a86f 2e3d 85ee 50bd
00000060: 19bd f63d 6ae5 123e 2071 f13d 4473 a3be
00000070: 2d17 a23d b5f4 083e 4871 013e 04f1 d2be
00000080: f2b7 9e3d 2e03 d7bd e22b 06bd d84b 9cbe
00000090: 047a 323d 73b3 7c3e ae33 a4bd 1525 97be
000000a0: f91e 1c3e 49fb 17be 0cae 9dba c6a9 74be
000000b0: 0901 c53d 4be7 963e 0345 343d 2bf3 8dbe
000000c0: 0cd9 91be 278c 0c3f bdf7 473d 2079 09be
000000d0: 46dc ddbd efb4 0abe ff08 0bbd dab9 40be
000000e0: 0b8d eebd 51f2 e73e d6a2 4dbd 7877 03bf
000000f0: 00d3 cb3d 4e4c 91be ca1d febc 0fc7 fcbe
00000100: b79a 40bd 2fbf b93e 0df9 1abd a296 12bf
00000110: 14d7 713e 9ad7 fabe f9ff 0b3c beb6 febe
00000120: 4d34 273e 308a 853e 643e f6bc f0d5 263e
00000130: b58b 723f 3265 82be 8c74 ccbb 2cb5 1f3e
00000140: 8e4b 4e3d e54f 813e f1d2 3abc 9439 3b3e
00000150: dc7d 263f b579 37be 4a8e dd3c cd65 823e
00000160: 5f23 383d 9b4f 963e 5392 62bd 34f2 423e
00000170: 5096 ab3e 5ff4 edbc 4e9e 283d 8636 613e
00000180: 8086 2f3e 82e4 d53d 7bc1 343e d675 a9bd
00000190: 4d3b 1dbe f996 04bf a5f2 903d e6b2 1ebe
000001a0: 44e7 6f3e 49de 303e 8b65 4e3d ad61 873d
000001b0: f31c a4bd 6695 2bbf 5e38 943d f29d 083e
000001c0: 2353 9a3e 1c70 8f3e db12 633c 7db4 8d3e
000001d0: 67e0 0cbe dc76 57bf 310d 573d 90a6 b03e
000001e0: 5533 9f3e 74e3 3fbd ece3 c4bc c12c 0f3e
000001f0: 173f fb3d 3a9b 1ebd a1ea 5d3d 5bd7 213e
00000200: 4a95 853e e018 243d 5a3f 373c cb12 853e
00000210: 3cce 8e3d bdd2 7fbc 9f56 a13d 8d5f 923e
00000220: 20db b63e 320b 833d 9320 b03c 17d0 6a3e
00000230: 7b97 183e 6904 c73c 99a4 f33c d1fc 4f3e
00000240: c8bd 8d3e cc48 063f 8c8c 92bb 67f9 9dbe
00000250: 08af 70be 4e74 12bf 4436 bc3c 9c42 60be
00000260: eefe ba3e bf67 043f 5418 293e 9fcd b33d
00000270: 001b 92be 6efb 4fbf 7f57 133e d7ab c43d
00000280: 49c1 993e 87cf 263f 3421 c93d 1b70 bf3e
00000290: a104 7ebe 6ff7 97bf aaec c43d 9730 cf3e
000002a0: 3044 6bbe 562d f03d 52a0 8bbd 568f a33d
000002b0: 9f86 c8bd a9a2 e3be c1ed 24bd 8b78 0b3d
000002c0: f5b5 15be 1b5d 463e 85c1 34bd e14d 46bd
000002d0: 1628 8abc 7515 1cbf 25a4 fbbc 2d8e 27bd
000002e0: 9d8a 9bbd 8a8e 0a3e cafe b8bd 5f49 18be
000002f0: e257 a53d 4c31 66bf 84d0 61bc 2d3e 2cbe
00000300: 717f 173e b2b6 1d3e 7077 0ebe ef98 6bbe
00000310: 305f 24be 6aa8 28be 20f4 0bbe 00c9 82be
00000320: ddde 5b3e e1af b93d 81df d3bc 1c44 f2be
00000330: df40 cdbd e3d1 1ebe 411f b9bb 1699 e5be
00000340: cad8 2e3e 616e 05be 5f5e 873d c4e2 e1be
00000350: ec3c 3bbe fc99 0bbd 50c9 3dbc afe8 01bf
00000360: c9c7 813e fe53 143f 354f 6b3c bef7 4bbd
00000370: 97fe febd 8ca5 f73e 4dbe ca3b ffea 03bd
00000380: 3dcd 3f3e 5352 0d3f d5e1 3f3c 6f64 4a3c
00000390: 7161 6dbe 3552 1f3f 2c73 09bd 2b57 6dbd
000003a0: 6527 843e 6e54 fd3e f0ad 8bbd e25e 78bc
000003b0: aa6c aebe 379e 383f 4986 eb3c 2016 29bd
000003c0: f711 8c3e eaac 17be d7ec 1a3c d65d 02bf
000003d0: bd44 6c3d 9bfb 3bbe 9bd9 06bd db2d e8be
000003e0: c33f 943e e960 b8be 3ecb 58bd c01b 96be
000003f0: c2e8 073e 62b5 cbbd 821c c1bd d21b 8bbe

fc1.bias f4 [256]
-0.090688355 -0.03123102 0.083236575 0.14372993 -0.22462623 -0.3342935 -0.21226369 -0.009105024
-0.281015 -0.24882266 -0.07403937 -0.064148 0.06345693 -0.13036892 0.044633195 -0.09820859
-0.15880871 0.0023703675 -0.0610411 -0.21761024 -0.00093602476 -0.3026409 -0.06306928 -0.1104272
0.023168156 -0.34154975 -0.0016872034 -0.02779431 -0.18573032 -0.23917596 -0.23189464 -0.17851707
-0.1666095 0.085660756 -0.09358423 0.063487194 -0.06409034 -0.012029498 -0.18445371 -0.23292707
-0.2235307 -0.14386001 -0.13890165 -0.23723318 -0.3310291 -0.18963826 -0.15553516 -0.23263974
0.119778216 0.1506269 -0.20188366 -0.14398922 -0.25891623 -0.121609546 -0.028794365 0.044898823
-0.026965437 -0.13448115 -0.2813176 0.123082444 0.23312782 -0.005897222 -0.0854779 -0.2188807
0.033411536 -0.007863246 -0.28358254 -0.034612704 -0.31821442 -0.4050784 0.09091317 -0.25137252
-0.23384823 -0.15551858 -0.35463357 -0.03986601 0.0082827695 0.13335548 -0.17779174 0.23668385
-0.07043944 -0.003735273 -0.31462756 -0.48208353 -0.023486849 -0.14105184 -0.29950556 -0.10703755
-0.17851496 -0.1977051 -0.16052966 -0.064662024 -0.2532161 0.022426901 -0.2517657 -0.20655046
0.23862189 -0.23145442 0.10483221 -0.08107314 0.13468087 -0.13086283 -0.045982316 0.014156945
-0.29272822 -0.14941664 0.14798103 -0.17285927 0.07216143 -0.23974748 -0.033597197 -0.0047296807
-0.14780377 -0.15249787 -0.14204934 -0.032276224 0.21152166 -0.3199645 -0.31348583 0.032723326
-0.2742345 -0.2798686 0.1382259 0.21457915 -0.09301834 0.019807225 -0.18264581 -0.083814204
-0.038007382 -0.104592755 -0.46496168 -0.10416674 -0.22795641 -0.042197056 0.05354587 -0.019147638
0.0077863177 -0.051989976 0.094935305 0.16678356 0.074773714 -0.23333724 -0.058341168 0.06412994
0.14277019 -0.18200663 -0.19449699 -0.37467712 -0.14179292 0.10968038 0.06376716 -0.062482975
-0.054134805 -0.07473795 0.12544991 -0.2712413 0.12205064 0.11121071 -0.31100866 0.19565299
-0.1762249 -0.101839565 0.07278389 -0.018599125 -0.07991977 0.032998066 -0.25514832 -0.025320463
-0.0055775065 -0.09704648 -0.13983952 -0.2533945 -0.051349632 -0.19845745 -0.33976743 -0.09920192
-0.206988 0.27973843 -0.22467645 -0.038972285 -0.182671 0.09612112 0.19415924 -0.1290393
0.15904987 -0.3182051 -0.35729545 -0.20236917 -0.16152996 -0.042888135 0.24551964 -0.008992079
-0.14155526 -0.17694351 0.006702247 -0.42314047 -0.1371797 0.16731435 -0.023370702 -0.13286138
-0.046875276 -0.017195696 0.07178383 -0.09175761 0.007602654 0.00012370781 -0.11786452 0.14211723
-0.10511676 -0.12546961 -0.19582687 -0.24199903 0.13675335 0.09055095 -0.09141579 -0.1976609
0.011330835 0.035986792 0.045404613 0.019474104 -0.26945224 0.0064239698 0.09943222 -0.17299373
-0.13045818 -0.30513525 0.084133014 -0.3145545 -0.3064261 -0.18217854 0.17405096 -0.08068733
-0.15903619 -0.15401933 -0.06534413 -0.024606552 -0.13555789 -0.1375449 -0.091463946 0.09537638
-0.18542579 -0.33014798 0.047762174 -0.11002296 -0.2841865 0.15447852 -0.15908739 -0.18033016
-0.16149259 -0.15008844 -0.21013978 -0.17889969 0.10323031 0.046125546 -0.19011085 0.22513095
00000000: d1ba b9bd 32d8 ffbc f077 aa3d f02d 133e
00000010: 6b04 66be 8528 abbe a75b 59be 3d2d 15bc
00000020: 33e1 8fbe 5ecb 7ebe f4a1 97bd 0760 83bd
00000030: b5f5 813d 6e7f 05be 4cd1 363d 9621 c9bd
00000040: c09e 22be 2b58 1b3b 3c06 7abd 38d5 5ebe
00000050: 8f5f 75ba bff3 9abe 772a 81bd a827 e2bd
00000060: 25cb bd3c 9cdf aebe 2725 ddba e5b0 e3bc
00000070: 1730 3ebe 8bea 74be ca75 6dbe 2ecd 36be
00000080: ae9b 2abe e86e af3d 17a9 bfbd 9305 823d
00000090: cc41 83bd 5f17 45bc 6fe1 3cbe 6f84 6ebe
000000a0: 3be5 64be 0a50 13be 3c3c 0ebe 41ed 72be
000000b0: a57c a9be 8830 42be 9c44 1fbe 1d39 6ebe
000000c0: 484e f53d f03d 1a3e 97ba 4ebe e971 13be
000000d0: ab90 84be 6d0e f9bd 29e2 ebbc d4e7 373d
000000e0: 9fe6 dcbc 6db5 09be dc08 90be a612 fc3d
000000f0: 0fb9 6e3e 7c3d c1bb 0a0f afbd 4322 60be
00000100: 89da 083d d8d4 00bc bb31 91be 0dc6 0dbd
00000110: 00ed a2be 7066 cfbe af30 ba3d e6b3 80be
00000120: e975 6fbe 4340 1fbe 8892 b5be 8b4a 23bd
00000130: 74b4 073c 578e 083e 0a0f 36be 405d 723e
00000140: 8e42 90bd 7bcb 74bb dd16 a1be a7d3 f6be
00000150: 7e67 c0bc e56f 10be cb58 99be 8136 dbbd
00000160: a0cc 36be 3573 4abe e361 24be 866d 84bd
00000170: 8aa5 81be 9fb8 b73c 6fe7 80be f781 53be
00000180: 4c59 743e 6302 6dbe 45b2 d63d ad09 a6bd
00000190: c8e9 093e e800 06be f457 3cbd 88f2 673c
000001a0: 79e0 95be ad00 19be 5788 173e 0502 31be
000001b0: 5fc9 933d 5d80 75be 379d 09bd 70fb 9abb
000001c0: df59 17be 6728 1cbe 6275 11be 1334 04bd
000001d0: 2299 583e 63d2 a3be 3781 a0be e508 063d
000001e0: 7768 8cbe f04a 8fbe 178b 0d3e a3ba 5b3e
000001f0: 6680 bebd c342 a23c 8107 3bbe c8a6 abbd
00000200: a1ad 1bbd ba34 d6bd 750f eebe 5f55 d5bd
00000210: 686d 69be d2d6 2cbd ea52 5b3d 82db 9cbc
00000220: 5e24 ff3b 71f3 54bd 716d c23d 4fc9 2a3e
00000230: f622 993d f5ef 6ebe 26f7 6ebd 8f56 833d
00000240: 5932 123e f25f 3abe 382a 47be aed5 bfbe
00000250: 2a32 11be 1ba0 e03d 5b98 823d 26ee 7fbd
00000260: 75bc 5dbd 3610 99bd f175 003e 24e0 8abe
00000270: b0f5 f93d 71c2 e33d 873c 9fbe 4259 483e
00000280: 4d74 34be 4391 d0bd b80f 953d 315d 98bc
00000290: faac a3bd fb28 073d cda2 82be dc6c cfbc
000002a0: 84c3 b6bb 4ec0 c6bd 1732 0fbe edbc 81be
000002b0: fe53 52bd 6e38 4bbe fff5 adbe 602a cbbd
000002c0: aaf4 53be e039 8f3e 9511 66be 67a1 1fbd
000002d0: 1b0e 3bbe 26db c43d aed1 463e e122 04be
000002e0: f8dd 223e c7eb a2be 6eef b6be dd39 4fbe
000002f0: 1c68 25be 78ab 2fbd 8069 7b3e 8353 13bc
00000300: ddf3 10be ae30 35be 869e db3b dea5 d8be
00000310: d678 0cbe 7454 2b3e ea73 bfbc d00c 08be
00000320: 4a00 40bd fddd 8cbc 6703 933d 6aeb bbbd
00000330: af1f f93b 90b7 0139 f462 f1bd 2e87 113e
00000340: 7547 d7bd 1b7b 00be d786 48be 98ce 77be
00000350: 1209 0c3e c772 b93d 3438 bbbd 9e67 4abe
00000360: f7a4 393c e366 133d 30fa 393d 2888 9f3c
00000370: a5f5 89be 2a80 d23b 1fa3 cb3d 4525 31be
00000380: d496 05be b03a 9cbe ee4d ac3d 4a0d a1be
00000390: e2e3 9cbe 038d 3abe 6a3a 323e 663f a5bd
000003a0: 62da 22be 3eb7 1dbe 25d3 85bd ae93 c9bc
000003b0: b0cf 0abe 92d8 0cbe 7351 bbbd b154 c33d
000003c0: 42e0 3dbe 2809 a9be 45a2 433d b853 e1bd
000003d0: e580 91be 9e2f 1e3e cee7 22be 78a8 38be
000003e0: 505e 25be c9b0 19be e22e 57be 7b31 37be
000003f0: 6a6a d33d 24ee 3c3d 6bac 42be ba88 663e

fc2.weight f4 [128, 256]
-0.054730207 -0.09519863 -0.09810391 -0.026521794 0.010589747 -0.054179776 -0.019340176 -0.0041143363
-0.009358886 0.04033226 -0.121259116 -0.07753405 -0.05678154 -0.10394205 -0.0619917 0.0324611
-0.0070400615 -0.06825456 -0.07167435 -0.09212129 -0.035198048 0.0754314 0.006542782 -0.051300216
-0.051971 -0.055394843 -0.04661559 -0.0654886 0.0041164416 -0.10728448 0.100078955 -0.10744499
0.03350839 -0.0047931806 0.08051848 -0.005318278 0.022355817 -0.0050272276 0.08575252 0.06201302
-0.0032966544 -0.08682673 -0.008499596 -0.108264424 0.0030629819 0.038999382 0.10146345 -0.04302555
0.027909532 -0.020650614 -0.05273825 -0.104505494 -0.004093861 -0.08488707 0.0024870283 -0.026353735
0.0039834706 -0.04176166 -0.1267986 -0.09188001 -0.116625145 0.09411043 -0.035601012 -0.00028396348
-0.16017267 -0.036257017 -0.017548518 0.05798994 -0.07946581 -0.047933377 -0.06336063 -0.10331131
-0.084414445 0.005404548 -0.030307895 -0.04689853 -0.09565764 -0.037413955 -0.022573775 -0.14928727
-0.023019126 -0.025032282 -0.067029655 0.06324136 0.038317043 -0.058984563 -0.096272625 -0.05610046
-0.08532157 -0.011347513 0.030858193 -0.102125555 -0.07675101 -0.0011216508 -0.05036925 -0.07262591
0.036371455 -0.08818004 0.035888635 -0.04690826 -0.04998206 -0.023370517 0.029359017 0.09010264
0.014001376 -0.086104155 -0.089485705 0.060268026 -0.11207008 0.080717795 -0.044893805 -0.024404839
-0.084353566 0.009754645 -0.08751972 -0.0031122125 -0.071176715 0.062072013 -0.09244802 0.0006126433
7.446621e-05 -0.08416323 -0.11610821 -0.015985113 -0.07542153 0.03658743 -0.014740441 -0.07964549
0.011334889 0.08287766 -0.02504194 0.03245589 -0.061809488 0.035546288 0.069603406 -0.09642096
-0.031066328 -0.02237218 -0.1329205 -0.06798952 -0.06692555 -0.004201691 0.09587967 -0.09719642
-0.069248796 0.04760499 -0.05238486 -0.023963174 -0.07186451 -0.027562259 0.0031919589 -0.12356736
-0.07967578 -0.03217473 0.04229258 -0.004853708 0.0048349136 0.0131625105 -0.024219543 0.070238195
0.01914859 -0.06281721 -0.018985558 -0.10950265 0.07833061 -0.077870935 -0.14987825 -0.011223563
-0.044674817 -0.0059804963 -0.07924222 -0.08972973 -0.12676616 0.0031702148 -0.027237978 -0.10737922
0.009141532 -0.032832693 -0.007519401 0.025809688 -0.012219456 -0.104885876 -0.017077772 -0.034512706
0.012399375 -0.005165402 0.0028179183 -0.022829445 -0.007856829 -0.0040078964 -0.033131305 -0.050176103
-0.093469776 -0.12248895 -0.09967577 -0.017484639 -0.09506046 -0.023355441 0.031776097 -0.06331459
0.028455948 -0.118324995 -0.020202456 0.03743183 0.016737793 -0.00804545 -0.10855055 0.062526345
-0.032211725 0.070234776 0.009643173 0.058329366 0.016835002 0.034922827 0.06288529 -0.09739085
-0.0006610006 -0.07136432 -0.11042157 -0.13520463 -0.026413202 0.05103396 -0.03189403 0.11923798
-0.038691472 -0.048983797 -0.15841584 0.08453856 -0.04186613 -0.053799313 -0.03362945 -0.05718036
-0.05486156 -0.017743656 -0.09502287 0.010621943 -0.0059938207 0.03651865 0.00041451992 -0.08970586
-0.022066396 -0.06816789 0.072664045 -0.04827079 -0.06877189 0.012000979 0.06408773 -0.13518116
-0.0116266105 -0.029081216 0.0028496285 -0.0045282915 -0.18143074 -0.0060818032 -0.044432677 -0.08573976
00000000: c82c 60bd 80f7 c2bd b4ea c8bd 3c44 d9bc
00000010: 9e80 2d3c 9deb 5dbd 4a6f 9ebc 8ed1 86bb
00000020: 0356 19bc 7133 253d b356 f8bd 2cca 9ebd
00000030: c393 68bd 92df d4bd 02eb 7dbd eef5 043d
00000040: 51b0 e6bb 0cc9 8bbd 00ca 92bd 16aa bcbd
00000050: d42b 10bd c77b 9a3d d564 d63b 2d20 52bd
00000060: 8bdf 54bd b4e5 62bd fdef 3ebd e31e 86bd
00000070: 37e3 863b f7b7 dbbd 32f6 cc3d 1e0c dcbd
00000080: 1840 093d 1d10 9dbb dfe6 a43d f344 aebb
00000090: 8c23 b73c 71bb a4bb 049f af3d 5d01 7e3d
000000a0: af0c 58bb 36d2 b1bd e441 0bbc bdb9 ddbd
000000b0: 4fbc 483b d1bd 1f3d 12cc cf3d 8f3b 30bd
000000c0: 88a2 e43c 7a2b a9bc 1004 58bd fa06 d6bd
000000d0: cc25 86bb 46d9 adbd 69fd 223b cae3 d7bc
000000e0: c687 823b 460e 2bbd 7ed7 01be 962b bcbd
000000f0: 2ad9 eebd f8bc c03d 5ed2 11bd efe0 94b9
00000100: 4e04 24be 3d82 14bd e9c1 8fbc dc86 6d3d
00000110: f8be a2bd ca55 44bd 38c3 81bd e194 d3bd
00000120: 7be1 acbd a218 b13b 4348 f8bc ac18 40bd
00000130: 27e8 c3bd 603f 19bd a3ec b8bc c3de 18be
00000140: 9b92 bcbc 8010 cdbc d846 89bd b084 813d
00000150: 55f2 1c3d cc99 71bd 952a c5bd 99c9 65bd
00000160: 13bd aebd ebea 39bc 52ca fc3c 3427 d1bd
00000170: a22f 9dbd 5b04 93ba fd4f 4ebd e5bc 94bd
00000180: 3cfa 143d bd97 b4bd f6ff 123d e022 40bd
00000190: fdb9 4cbd 8773 bfbc 5282 f03c bc87 b83d
000001a0: 0766 653c 6057 b0bd 4844 b7bd 9bdb 763d
000001b0: 0085 e5bd 5f4f a53d 91e2 37bd a8ec c7bc
000001c0: 90c1 acbd f2d1 1f3c 8a3d b3bd 43f6 4bbb
000001d0: 19c5 91bd 393f 7e3d 6355 bdbd cc99 203a
000001e0: be2a 9c38 c65d acbd 24ca edbd 36f3 82bc
000001f0: 9a76 9abd b3dc 153d e481 71bc 2d1d a3bd
00000200: f8b5 393c c3bb a93d c124 cdbc 78f0 043d
00000210: f22b 7dbd fc98 113d 3b8c 8e3d 5a78 c5bd
00000220: d07e febc dd45 b7bc 501c 08be 173e 8bbd
00000230: 4310 89bd 57ae 89bb 8f5c c43d eb0e c7bd
00000240: 50d2 8dbd 73fd 423d 8291 56bd 6b4e c4bc
00000250: b32d 93bd 3fca e1bc 2f30 513b e210 fdbd
00000260: 0e2d a3bd a6c9 03bd fc3a 2d3d db0b 9fbb
00000270: 326e 9e3b 92a7 573c 1068 c6bc 0bd9 8f3d
00000280: 81dd 9c3c 4fa6 80bd 9a87 9bbc ed42 e0bd
00000290: cd6b a03d cc7a 9fbd af79 19be 09e3 37bc
000002a0: f1fc 36bd 0af8 c3bb bf49 a2bd 38c4 b7bd
000002b0: fdce 01be 61c3 4f3b 2e22 dfbc a3e9 dbbd
000002c0: 5dc6 153c 937b 06bd 4f65 f6bb d76e d33c
000002d0: 1d34 48bc 68ce d6bd afe6 8bbc 325d 0dbd
000002e0: c026 4b3c 8842 a9bb d3ac 383b d104 bbbc
000002f0: eeb9 00bc ac54 83bb b1b4 07bd 7585 4dbd
00000300: 156d bfbd 7ddb fabd cf22 ccbd f23b 8fbc
00000310: 0faf c2bd e953 bfbc a727 023d 14ab 81bd
00000320: 731c e93c 6054 f2bd 9f7f a5bc 1e52 193d
00000330: b21d 893c 10d1 03bc c04f debd d00d 803d
00000340: 71f0 03bd 40d7 8f3d 66fe 1d3c c6ea 6e3d
00000350: 8fe9 893c 3d0b 0f3d 01ca 803d db74 c7bd
00000360: 0047 2dba 7527 92bd b424 e2bd 1573 0abe
00000370: 8060 d8bc fc08 513d 50a3 02bd 0b33 f43d
00000380: f37a 1ebd 3ca3 48bd c337 22be 8d22 ad3d
00000390: d27b 2bbd ab5c 5cbd 09bf 09bd f435 6abd
000003a0: 84b6 60bd 255b 91bc 5a9b c2bd a807 2e3c
000003b0: d067 c4bb 9494 153d ec53 d939 b5b7 b7bd
000003c0: 96c4 b4bc 9b9b 8bbd e3d0 943d 98b7 45bd
000003d0: 47d8 8cbd c19f 443c 6e40 833d ee6c 0abe
000003e0: 8a7d 3ebc bb3b eebc d5c0 3a3b 1062 94bb
000003f0: fbc8 39be dd49 c7bb 0aff 35bd 5498 afbd

fc2.bias f4 [128]
0.03364551 -0.022550533 -0.06207921 -0.0076543977 -0.1649132 -0.1150535 -0.16312425 -0.12279489
-0.102390766 -0.2598511 0.08199269 -0.17553571 -0.37421557 -0.17193724 -0.1089416 -0.14515081
-0.2471597 -0.2525429 -0.08674384 -0.21205884 -0.075911134 -0.03153725 -0.07131061 -0.14723052
0.10208783 -0.09197667 -0.1116282 -0.055658337 -0.0881618 -0.03140963 -0.119170025 -0.076604016
-0.09709903 -0.1250073 -0.19515103 -0.054628167 0.18929261 -0.08515577 0.13672836 -0.08319455
-0.03743914 0.12846266 0.09491248 -0.06084689 0.022261478 0.055846132 -0.164565 -0.0028121998
0.04860027 -0.10368863 -0.11155444 -0.05125969 0.076082356 0.04642966 -0.043852117 0.053199153
-0.16028717 -0.050171267 -0.058545213 -0.03237814 -0.023109592 0.011744278 -0.07607173 -0.12385231
-0.012305171 0.10884512 -0.21000725 -0.010082495 -0.0033060391 -0.26116744 -0.212098 -0.03428863
-0.10021446 0.06829945 -0.07205667 -0.025578547 -0.026419869 -0.032108713 -0.14151938 -0.16638823
-0.028054733 -0.049400404 -0.07407767 0.03004423 -0.110886335 -0.08232245 -0.08849941 -0.16957204
-0.038488712 -0.070521004 -0.19180028 -0.024756568 0.1063034 -0.033584204 -0.12071775 0.020143563
0.115060024 -0.023601618 0.004705825 -0.21765174 0.016884377 -0.033978283 -0.011178379 -0.0029049737
-0.083581194 -0.091219835 -0.13470723 -0.26661798 0.010576907 -0.068151236 -0.095517755 -0.046425667
-0.21446362 0.0052746646 -0.041370906 0.04689568 -0.17732006 -0.06859904 0.08235399 0.006421505
0.006173608 0.06877083 -0.07713634 -0.07023312 -0.097797714 -0.04119705 -0.14974657 -0.017651327
00000000: e0cf 093d e5bb b8bc c546 7ebd bed1 fabb
00000010: 02df 28be 2ba1 ebbd 0b0a 27be e37b fbbd
00000020: 40b2 d1bd 340b 85be c9eb a73d a2bf 33be
00000030: 2f99 bfbe 5110 30be c61c dfbd 6aa2 14be
00000040: 6f17 7dbe 4e4d 81be c1a6 b1bd f425 59be
00000050: 4c77 9bbd 342d 01bd 4c0b 92bd 99c3 16be
00000060: 6d13 d13d 445e bcbd 539d e4bd fff9 63bd
00000070: 2c8e b4bd 62a7 00bd 6a0f f4bd 91e2 9cbd
00000080: dbdb c6bd ea01 00be acd5 47be c9c1 5fbd
00000090: ecd5 413e 2666 aebd 8502 0c3e e761 aabd
000000a0: c959 19bd b78b 033e 7961 c23d 973a 79bd
000000b0: b45d b63c eabe 643d ba83 28be e24c 38bb
000000c0: 1411 473d b45a d4bd a776 e4bd aef5 51bd
000000d0: 11d1 9b3d 072d 3e3d 479e 33bd 5be7 593d
000000e0: 5222 24be 6380 4dbd 1bcd 6fbd f19e 04bd
000000f0: 5450 bdbc 126b 403c 7fcb 9bbd 48a6 fdbd
00000100: a19b 49bc 31ea de3d 240c 57be 0d31 25bc
00000110: 22aa 58bb bdb7 85be 3830 59be 3c72 0cbd
00000120: 3d3d cdbd 95e0 8b3d 7392 93bd 1a8a d1bc
00000130: 7b6e d8bc 6d84 03bd 75ea 10be ad61 2abe
00000140: 0ad3 e5bc 1458 4abd 09b6 97bd 511f f63c
00000150: 6018 e3bd ac98 a8bd 2e3f b5bd 4ba4 2dbe
00000160: 57a6 1dbd 516d 90bd 4b67 44be 49ce cabc
00000170: 99b5 d93d 978f 09bd de3a f7bd 1d04 a53c
00000180: 97a4 eb3d 2e58 c1bc 5233 9a3b 19e0 5ebe
00000190: 1b51 8a3c d02c 0bbd 8525 37bc 5f61 3ebb
000001a0: 9e2c abbd 77d1 babd b1f0 09be 2782 88be
000001b0: c34a 2d3c e092 8bbd d09e c3bd d728 3ebd
000001c0: 5a9c 5bbe 18d7 ac3b 8a74 29bd af15 403d
000001d0: 6493 35be a77d 8cbd 35a9 a83d 7d6b d23b
000001e0: fa4b ca3b b9d7 8c3d a8f9 9dbd 62d6 8fbd
000001f0: 2b4a c8bd 3dbe 28bd 2a57 19be 8499 90bc

fc3.weight f4 [2, 128]
-0.039998554 -0.052837413 0.16272461 0.042549442 -0.23856722 0.17572565 0.0058027282 -0.1794294
-0.009349963 -0.028300399 0.2820457 0.0067936685 -0.26468232 -0.15871857 0.082767904 -0.1954538
-0.028835531 -0.1389972 0.09964414 -0.08250842 -0.0046835113 -0.0016291012 -0.104545735 0.435249
0.046274964 -0.089410745 0.01724377 0.05504874 -0.040794935 0.25417337 -0.010027163 0.1602202
0.0064588967 -0.026631083 -0.22152118 0.048304092 -0.05636617 0.010010482 -0.02797152 0.088266805
-0.023636252 -0.007863837 0.23641908 0.016088035 0.24136837 0.22397226 -0.027840225 -0.022867551
0.3571418 -0.122803815 0.006534063 0.0014092439 0.24337119 -0.11918374 0.003497026 -0.015580815
0.039654784 -0.082571834 0.03201523 -0.021166807 -0.019757845 0.27619854 0.011553317 -0.23139249
-0.24417366 -0.29291895 -0.023251913 0.037041757 0.043812305 0.076830104 -0.050718766 0.13546535
0.006094114 0.2731808 0.033772703 -0.016160678 0.18468727 -0.14318296 0.318024 -0.1809161
-0.0058155223 0.0021613308 -0.17179239 0.29055998 -0.12482204 -0.0024602886 -0.38027304 -0.12325293
-0.085178204 -0.00753116 -0.2003646 -0.25229332 0.2046497 -0.0025184187 -0.21663292 -0.19770516
0.121637054 0.11200454 -0.014440993 -0.10327375 -0.013765247 -0.07187074 0.016861381 -0.00061674503
-0.0014181157 0.01224326 0.018787876 0.072236784 -0.08954641 -0.04205681 -0.045408994 -0.08838326
-0.0039993064 -0.009750266 -0.065763906 0.23649544 0.10008437 0.0027411692 0.29971233 0.075639404
-0.006098499 0.13274768 -0.11783104 0.01768351 -0.00768904 -0.081934944 -0.2020232 0.2791114
0.015505269 -0.061029274 -0.4230768 0.16016492 -0.24215317 -0.20115119 -0.35670498 -0.11873576
0.038666703 -0.08974156 0.0485495 -0.043935977 0.27672592 0.03608948 -0.046834555 0.33602816
0.12099371 -0.18832868 0.06706818 -0.21817665 -0.009798555 -0.00036564216 -0.08907246 -0.0024124745
-0.50825846 0.051079396 -0.011695999 -0.012123643 -0.005103373 0.05111579 -0.21473289 -0.2837495
-0.16811231 0.05540831 -0.046006773 -0.0035667103 0.1832349 0.25497952 0.28015858 0.028250366
0.00068147504 0.13370536 0.06383294 -0.3016627 -0.1107228 0.05657861 0.038544916 -0.02736986
-0.007511611 0.08444287 -0.04872954 -0.40507203 0.085383184 -0.1521357 0.02437017 0.009594424
0.28509152 -0.16877984 -0.027514055 0.2114549 0.031237345 0.0036893378 0.017345915 -0.11311903
0.04054486 0.25290447 0.01983236 -0.48137897 -0.36147374 -0.051476464 0.0115749175 0.08815374
-0.1296363 0.030893127 -0.21783966 -0.013035513 -0.30065024 -0.03792754 -0.13617028 -0.08167441
-0.008072485 -0.017324466 -0.089114904 -0.06453105 0.05824395 0.3422055 -0.17022143 0.10328467
-0.18234082 -0.0069889408 0.022667907 0.18614422 0.09057333 -0.0043493127 -0.0731871 0.3257909
0.035562664 -0.25558177 -0.009800799 0.035441328 -0.014323745 -0.24529128 0.12823436 0.0069824248
0.015905451 0.11064817 0.022853466 0.06844504 -0.03449627 0.22875376 -0.016009193 -0.22505863
0.29458037 0.009062701 -0.16822602 0.04468777 -0.3617837 -0.019909222 0.06050954 -0.20370533
0.0021725672 0.050503775 -0.05841245 0.037607472 0.13602808 0.050907403 -0.00020888477 -0.09511409
00000000: 86d5 23bd 0b6c 58bd 48a1 263e 5348 2e3d
00000010: f74a 74be 6df1 333e d024 be3b 57bc 37be
00000020: 9630 19bc 3dd6 e7bc 4b68 903e 6c9d de3b
00000030: 7184 87be 1f87 22be 3882 a93d 0a25 48be
00000040: 7e38 ecbc 4855 0ebe 3a12 cc3d 2dfa a8bd
00000050: 2478 99bb 9187 d5ba 131c d6bd f5d8 de3e
00000060: d18a 3d3d fb1c b7bd cf42 8d3c ca7a 613d
00000070: 9718 27bd 0323 823e f848 24bc c410 243e
00000080: 27a5 d33b 6e29 dabc 73d6 62be 83da 453d
00000090: 37e0 66bd 0103 243c 8724 e5bc 3ac5 b43d
000000a0: d0a0 c1bc 53d7 00bc d817 723e 0ecb 833c
000000b0: 4529 773e fc58 653e 2f11 e4bc bb54 bbbc
000000c0: 4adb b63e 9180 fbbd b11b d63b 61b6 b83a
000000d0: 4c36 793e 9b16 f4bd 5c2e 653b ad46 7fbc
000000e0: 0e6d 223d 6c1b a9bd 6722 033d 0366 adbc
000000f0: 34db a1bc e569 8d3e 204a 3d3c 27f2 6cbe
00000100: a908 7abe 79f9 95be cc7a bebc 19b9 173d
00000110: 8874 333d 1a59 9d3d 7bbe 4fbd 6eb7 0a3e
00000120: 22b1 c73b 5bde 8b3e 3f55 0a3d 6663 84bc
00000130: a91e 3d3e 8e9e 12be 0bd4 a23e 1242 39be
00000140: 2390 bebb 1da5 0d3b 58ea 2fbe 47c4 943e
00000150: b3a2 ffbd cb3c 21bb 26b3 c2be 086c fcbd
00000160: e971 aebd f3c7 f6bb 612c 4dbe 972c 81be
00000170: b18f 513e 0e0c 25bb 05d5 5dbe 3973 4abe
00000180: d91c f93d a362 e53d ea99 6cbc 3081 d3bd
00000190: a187 61bc f730 93bd e120 8a3c 0fad 21ba
000001a0: 11e0 b9ba f497 483c 08e9 993c e1f0 933d
000001b0: 1c64 b7bd c343 2cbd c8fe 39bd 4802 b5bd
000001c0: 9d0c 83bb 94bf 1fbc 3aaf 86bd dc2b 723e
000001d0: 09f9 cc3d 30a5 333b e573 993e d5e8 9a3d
000001e0: ebd5 c7bb 02ef 073e 6651 f1bd 02dd 903c
000001f0: 58f4 fbbb 82cd a7bd 2bdf 4ebe b0e7 8e3e
00000200: d009 7e3c d5f9 79bd 869d d8be 4602 243e
00000210: 00f7 77be 94fa 4dbe 09a2 b6be bc2b f3bd
00000220: fa60 1e3d 6cca b7bd d7db 463d 36f6 33bd
00000230: 05af 8d3e 90d2 133d 97d5 3fbd e20b ac3e
00000240: 8dcb f73d 3cd9 40be 0b5b 893d b369 5fbe
00000250: 1e8a 20bc a9b3 bfb9 9f6b b6bd 9b1a 1ebb
00000260: 3a1d 02bf a138 513d 93a0 3fbc 3fa2 46bc
00000270: 323a a7bb ca5e 513d f0e2 5bbe 9d47 91be
00000280: a225 2cbe d3f3 623d 9971 3cbd 78bf 69bb
00000290: eea1 3b3e ad8c 823e f270 8f3e 506d e73c
000002a0: 04a5 323a 0fea 083e d8ba 823d 8973 9abe
000002b0: a3c2 e2bd f9be 673d 46e1 1d3d c236 e0bc
000002c0: f623 f6bb 62f0 ac3d a098 47bd 9a65 cfbe
000002d0: 61dd ae3d 76c9 1bbe f3a3 c73c ee31 1d3c
000002e0: 84f7 913e 9fd4 2cbe 2865 e1bc a287 583e
000002f0: 76e5 ff3c d1c8 713b 0519 8e3c f3aa e7bd
00000300: 5e12 263d b27c 813e 7977 a23c 4e77 f6be
00000310: 1613 b9be fcd8 52bd b9a4 3d3c f389 b43d
00000320: 61bf 04be 9513 fd3c 5c11 5fbe e892 55bc
00000330: d4ee 99be e859 1bbd 3970 0bbe ea44 a7bd
00000340: 7542 04bc 0aec 8dbc e081 b6bd db28 84bd
00000350: 3591 6e3d 8f35 af3e 874e 2ebe ea86 d33d
00000360: 8db7 3abe 7c03 e5bb 0cb2 b93c 979c 3e3e
00000370: 837e b93d ae84 8ebb 1ee3 95bd 11ce a63e
00000380: 28aa 113d 9ddb 82be 8893 20bc ed2a 113d
00000390: 24ae 6abc a32d 7bbe de4f 033e d3cc e43b
000003a0: 264c 823c 829b e23d 3137 bb3c ea2c 8c3d
000003b0: f64b 0dbd 6d3e 6a3e b625 83bc c575 66be
000003c0: 3dd3 963e b97b 143c 7143 2cbe 860a 373d
000003d0: b73b b9be aa18 a3bc dad8 773d 2198 50be
000003e0: a161 0e3b 0cdd 4e3d e541 6fbd 4b0a 1a3d
000003f0: f24a 0b3e 4884 503d 1408 5bb9 2dcb c2bd

fc3.bias f4 [2]
0.15776913 0.07967721
00000000: 3b8e 213e ce2d a33d
